DeepBot/model/best_lstm_model.pth (torch, 74109 bytes, 10 tensors)

lstm.weight_ih_l0 f4 [256, 1]
000000 aa f2 bc 3e a3 24 85 bf 72 f3 47 be 1f fe 34 3e
       0.36903888 -1.0401806 -0.19526461 0.17675065
000010 98 4f ff be 4e 12 a2 3e 02 28 f9 3d 5e 1a 42 bf
       -0.49865413 0.3165459 0.12165834 -0.75821483
000020 ca a9 49 bf 3a b8 cb be d0 86 6f 3f 01 74 0e 3f
       -0.787747 -0.3978899 0.9356508 0.5564576
000030 90 16 08 be 4e 72 0f 3f 37 cf cb be 6a 1c a3 c0
       -0.13289857 0.5603379 -0.3980653 -5.0972185
000040 cd 0c a7 3e 06 f7 95 bf 90 78 12 be 88 2a f7 bd
       0.32626954 -1.171601 -0.14303803 -0.12068659
000050 28 4d c2 3d 6d 5e 96 bf 57 36 9c 3e 0c 8b 4c 3f
       0.09487373 -1.1747566 0.30510208 0.7989967
000060 a0 48 1a 3f 4a fc 28 bf f3 86 8d bf dd b0 7a 3e
       0.60267067 -0.6600996 -1.1056808 0.2448153
000070 66 c6 0c 3d 20 d7 91 bf ba 3f b1 be 15 71 44 3f
       0.034368895 -1.1393776 -0.34618932 0.7673505
000080 8e 88 83 bd 3b 89 14 3f b4 0a b8 bf 60 08 5d bd
       -0.0642253 0.580219 -1.4378266 -0.053963065
000090 e1 04 c1 bf 02 81 12 bd 9c 08 71 bf a6 c2 5a bf
       -1.5079614 -0.035767563 -0.9415376 -0.8545326
0000a0 1a e9 c9 3d 4a f8 d7 3e af d9 12 bf f7 d1 bf be
       0.09858914 0.42181617 -0.5736341 -0.37464878
0000b0 d7 f5 a3 3e 2d 49 65 bf c2 3e 73 be 20 2a 8c bf
       0.32023498 -0.8956478 -0.23754409 -1.0950356
0000c0 40 8c 1e 3f 80 ae dc be f9 72 f0 3e 9a 9b 14 3f
       0.61932755 -0.43101883 0.46962717 0.5804993
0000d0 88 8d 20 bf 04 8d e8 be 40 77 c5 be df 90 3e 3f
       -0.6271596 -0.45420086 -0.38567543 0.74439806
0000e0 0d e1 eb 3c ab 2e 87 bf a5 0b 09 c0 5f f0 a4 bd
       0.028793836 -1.0561117 -2.1413357 -0.0805366
0000f0 16 d3 de bd 26 c6 da be 55 4f 0a be 32 f9 fa 3e
       -0.10880105 -0.427293 -0.13506825 0.49018246
000100 72 de b1 be 3a 37 54 3e fc dc 19 be c8 d9 9e 3e
       -0.34740025 0.20724192 -0.15025705 0.3102553
000110 0f a1 85 3f 39 c9 21 bf 04 38 ee be b5 e7 02 be
       1.0439776 -0.63197666 -0.46527112 -0.12783702
000120 e6 c6 82 3f 2d 5b e7 be 81 82 8b 3f 32 84 64 bf
       1.0216949 -0.4518675 1.0899202 -0.89264214
000130 e6 ae 29 3f c0 c3 30 3f 5c d3 13 be fa e7 d6 bf
       0.662825 0.6904869 -0.14436096 -1.6789544
000140 05 fd b5 3f 86 70 6b 3f 65 94 44 40 29 9a 1e 3f
       1.421784 0.9196857 3.0715573 0.6195398
000150 3a 1b e2 be 7b 62 6d 3f ef b0 83 bd 67 b9 47 be
       -0.44161397 0.92728394 -0.06430232 -0.19504319
000160 bd 8d c7 3b 03 09 c5 3e 2f 00 5b 3f 02 a9 e7 be
       0.0060898946 0.38483438 0.85547155 -0.4524613
000170 6f 9a a8 be a6 c2 79 3f 76 be 97 3f 98 e3 a1 bf
       -0.32930323 0.97562635 1.1854999 -1.2647581
000180 e0 be 05 3f ee 4a 26 bf 19 f8 9b 3f e3 68 39 3e
       0.5224438 -0.64958084 1.2185088 0.18106417
000190 ec c4 21 3e d8 fa 4b bf 83 21 b3 bd 56 b6 bf bd
       0.15797776 -0.7967963 -0.08746626 -0.0936095
0001a0 5d e9 17 bc 59 8d fd 3e 92 7c 42 bf 18 bf 1e 3e
       -0.009271947 0.49521902 -0.7597133 0.15502584
0001b0 78 bb 44 3f 3c 42 9e 3e 36 95 20 3e 0b 62 ec 3e
       0.76848555 0.30909908 0.1568192 0.4616855
0001c0 de 48 18 bf b0 fc 9b bd 6b 61 8a 3e 54 b9 15 be
       -0.59486187 -0.07616556 0.2702745 -0.14621478
0001d0 b7 d7 b7 be 29 00 5d be f2 ae ff 3e 6f 6c 6e 3e
       -0.35906765 -0.21582092 0.4993816 0.23283552
0001e0 40 da d3 3e 52 16 a8 bf ed a9 2f bf 15 42 29 bf
       0.4137745 -1.3131812 -0.6861866 -0.6611646
0001f0 57 57 aa bf 02 fa 15 bf e0 f9 8d be 35 ff 9b bd
       -1.3307904 -0.58584607 -0.27729702 -0.07617036
000200 5b 9a f5 bd 60 05 03 3f fc db 77 3f 71 24 fd 3d
       -0.119923316 0.51180077 0.96820045 0.12360466
000210 a8 97 84 3f 46 2c 5a 3e 23 c5 87 bc be 34 59 bf
       1.0358782 0.21305951 -0.016573494 -0.84846103
000220 72 eb 9b bf 53 9e b1 bc f0 65 b7 3e 0b d3 97 3e
       -1.2181227 -0.02168194 0.3581996 0.296532
000230 e1 bf 44 bf e3 c8 e5 bd 04 54 6c 3f ae d0 55 41
       -0.76855284 -0.11219957 0.923157 13.363447
000240 00 91 11 bf b4 f3 53 bf f5 0a cc bf e3 39 7b bf
       -0.5686188 -0.82793736 -1.5940844 -0.98135203
000250 ae a1 86 3e af c9 3b 3f d6 b2 b8 be 3e 13 b2 3d
       0.26295227 0.7335462 -0.3607394 0.086950764
000260 54 6d 83 bf 9a 81 a9 be d6 21 99 3f d3 16 a8 be
       -1.0267739 -0.3310669 1.1963451 -0.32829913
000270 2e 68 c3 bc 6c 34 58 3f 90 ef 58 c0 61 54 18 bf
       -0.023853388 0.8445499 -3.3896217 -0.5950375
000280 a5 fa a1 be 2f 1a 32 bf 45 00 bd 3f 6f 7a df 3d
       -0.3163654 -0.69571203 1.4765707 0.10912024
000290 38 52 c9 be ab 51 04 bd 82 be 77 bf bf b1 28 3e
       -0.3932054 -0.032304447 -0.96775067 0.16474055
0002a0 5b dd f2 bc a1 29 90 bf 07 d0 e6 bd d8 26 05 40
       -0.029646566 -1.1262704 -0.11270147 2.0804958
0002b0 91 6d 97 be 5a 8f 18 bf 18 93 2d 3f 05 da 9e bf
       -0.2957578 -0.5959374 0.6780257 -1.2410284
0002c0 96 6e a3 3d 5a f2 e3 be 0c ea 6e bc c4 59 0f c0
       0.07980077 -0.44520837 -0.014582168 -2.2398539
0002d0 1b 13 12 bf ef 2e d4 be de 6f fb 3e d1 b7 30 3d
       -0.570604 -0.41442057 0.49108785 0.04314405
0002e0 3e d5 b9 bd d2 73 a7 be 03 c4 91 41 f7 4f 02 bd
       -0.09073876 -0.3270555 18.220709 -0.03181454
0002f0 b5 b9 9c 3f d4 24 1b be 79 e1 6b bf bd 20 84 be
       1.2244173 -0.15150768 -0.9214092 -0.25806227
000300 af 1c 98 be fa 4c 85 bf 8e 6c 31 bf b9 5e 16 bb
       -0.29709384 -1.0414116 -0.69306266 -0.0022944643
000310 58 d9 13 bf 1a fc 02 bd f7 01 a4 be b0 58 99 bf
       -0.57753515 -0.031978704 -0.3203275 -1.198019
000320 b9 9a 93 3e 21 74 23 be 3e f5 3d 3d 18 db 82 be
       0.28828982 -0.15962268 0.04637646 -0.2555778
000330 82 3f e9 3e 6f 45 0a 3a 4a 04 7f bf 34 c9 8d c0
       0.45556265 0.00052746286 -0.9961592 -4.430811
000340 7e c7 ec 3a ee 9c 28 3f 50 66 cc be fc 6e 83 bd
       0.0018064824 0.65864456 -0.39921808 -0.06417653
000350 df 7a 8d be ae 29 cb bf 65 c4 aa 3d 0c 43 88 3b
       -0.27632806 -1.5872095 0.083382405 0.0041583832
000360 49 f7 a5 be 37 f2 7c bf 25 fd a4 3e b6 36 ec bd
       -0.32415226 -0.9880709 0.32224384 -0.11533873
000370 53 07 f8 bd 82 21 bc bf a1 29 9a 3e a3 1a 3b be
       -0.12110772 -1.4697726 0.30109885 -0.1827188
000380 c4 f2 58 3b 74 07 28 bf 2c ab 07 3f 47 0a ce 3e
       0.0033103684 -0.6563637 0.5299556 0.40242216
000390 57 75 f2 bf 77 b6 01 3f 04 7f a8 bf 72 91 96 bf
       -1.8942059 0.50669044 -1.3163762 -1.1763136
0003a0 ac 18 c6 bd 5e 86 25 3e 2a b4 0a bf 23 de ea bd
       -0.096726745 0.16164538 -0.5418116 -0.114681505
0003b0 81 b3 38 3d 64 4b 5c bf 4f 75 59 be 28 ff 7c bf
       0.045093063 -0.86052537 -0.21236156 -0.9882684
0003c0 fc ce 40 bd bc 3b be bf a7 7e 84 bc 02 83 e8 bf
       -0.047072396 -1.486198 -0.016173674 -1.816498
0003d0 c6 8b 43 bf bc 8c d2 be 3f a4 d5 be 0c 7a 60 3f
       -0.7638515 -0.41122997 -0.41726872 0.8768623
0003e0 35 b3 80 3f 89 5b e4 bf 09 7d 1d c0 73 34 9d 3d
       1.005469 -1.7840434 -2.4607565 0.076760195
0003f0 94 a3 5f be 18 eb d5 be a8 7d c5 bd b5 98 16 bd
       -0.21839744 -0.41780925 -0.09643108 -0.036766727

lstm.weight_hh_l0 f4 [256, 64]
000000 42 b5 0e 3f 2c 37 ab 3f 19 f3 0e bd ad 5e a1 3f
       0.5574533 1.3376212 -0.034899805 1.2607018
000010 0d 7d 3a be 95 e6 5b 3f 15 f0 26 bf 52 af ef be
       -0.18211766 0.85898715 -0.65210086 -0.46813446
000020 ff 87 23 3f be 14 31 bf 75 19 18 bf 4a b1 55 bd
       0.6387939 -0.69172275 -0.59413844 -0.05217103
000030 2d 90 3b bf 64 91 94 bf 7a 22 83 3f 6b 28 71 bf
       -0.7326687 -1.160687 1.0244896 -0.942023
000040 14 42 00 3f ac 0d 08 3e 4e 04 b9 be d4 3d 04 40
       0.5010083 0.13286465 -0.36136097 2.0662737
000050 cb 2e 0d bf 72 a0 25 bf 8a 13 9e 3f 27 22 a7 3f
       -0.55149525 -0.64697945 1.2349713 1.3057297
000060 e0 0b 13 be e9 9b 8f 3e a2 c0 63 3f 11 f7 c0 bd
       -0.14359999 0.28048638 0.8896581 -0.09422124
000070 83 ad 97 bf 15 81 98 3f a4 c6 94 bd 65 14 c0 be
       -1.1849827 1.1914393 -0.0726445 -0.3751556
000080 53 f9 b2 3e 7b b0 05 3f af 42 0c bc a1 49 8c 3c
       0.34955844 0.5222241 -0.0085608205 0.017124953
000090 4e 88 89 3f 36 b5 c7 3e 4a 17 69 be b1 ff 1f bf
       1.0744722 0.3900544 -0.2276279 -0.6249953
0000a0 8c 43 33 bf 99 b5 a1 3e f5 79 60 3f 76 9d f4 3d
       -0.70024943 0.3158386 0.8768609 0.11944096
0000b0 8f ee 86 3e 37 51 9c bf 6a ad 50 3e 68 17 48 3e
       0.2635388 -1.2212285 0.20378652 0.19540179
0000c0 d9 aa 6d 3f 51 b9 aa 3f 47 03 8d bf e1 56 ea be
       0.9283882 1.3337804 -1.1016625 -0.45769408
0000d0 45 00 b3 bf 4b 23 7d bf 36 23 d4 be db cd 4d be
       -1.3984457 -0.9888198 -0.41433114 -0.20098059
0000e0 10 49 d9 be f5 62 2c 3e 23 1b 0c c0 86 93 10 3e
       -0.42438555 0.16834624 -2.1891563 0.14118776
0000f0 7e 21 c6 be c8 35 be bf ff fe ee 3f e4 e8 cb 3d
       -0.38697428 -1.4860163 1.8671569 0.0995653
000100 06 c5 b5 3e 08 4f b5 3d b9 2f 1c 3f 81 8f 01 3d
       0.3550188 0.08852965 0.6101032 0.031630997
000110 5e a8 a1 bd 03 96 17 3e 12 93 7c bc 07 f2 2a 3d
       -0.078934416 0.14803319 -0.015415924 0.04173472
000120 24 bb 67 3e 44 0a da be 38 a0 38 bf 67 01 e4 be
       0.22629982 -0.42585957 -0.72119474 -0.4453232
000130 f3 e9 88 3f 11 1d 07 3e 41 e3 b2 3e 42 ac c2 3e
       1.0696396 0.13194682 0.34939006 0.38022047
000140 a3 1b bf 3e 9f c4 c4 3e 58 98 4b be 41 6f 7d 3d
       0.37325773 0.3843126 -0.19882333 0.061873678
000150 4e 73 85 bf 59 81 2d bf 0d dc 18 3f 4e 6e 43 3e
       -1.0425813 -0.67775494 0.5971077 0.19085047
000160 62 ed 1a 3f c5 e8 9f 3e c8 10 f4 3e 14 fc 26 bf
       0.6051847 0.31232277 0.47669053 -0.6522839
000170 68 a9 a3 be 46 8f ac 3d f1 0f 77 be a3 dd ac be
       -0.31965184 0.08425765 -0.24127175 -0.33762845
000180 c3 63 36 3f 79 93 7d be ca 24 1e bf 36 a9 9c be
       0.71245974 -0.24763288 -0.61774886 -0.30597848
000190 5f 68 73 3f 94 d5 15 3f 8d da af 3d e3 a0 06 bf
       0.9508113 0.5852902 0.08586607 -0.52589244
0001a0 45 5d a9 be 43 7b fb 3e 80 3f 8c 3f 95 02 5d be
       -0.33078972 0.4911748 1.0956879 -0.21583016
0001b0 e7 68 8d 3f 46 29 1a bd 0a 68 eb be 84 de b1 3e
       1.1047639 -0.037637018 -0.45977813 0.34740078
0001c0 e6 7d ce 3e e6 a3 84 3f f3 a3 4b bf c5 e1 b1 3e
       0.40330428 1.0362518 -0.7954704 0.3474256
0001d0 a7 5e c8 be a2 66 21 bd c8 fa e3 be 0f 8f 31 3f
       -0.39134714 -0.03940452 -0.44527268 0.69358915
0001e0 89 6a 0e 3f ca f8 f8 3e 2a b0 d1 bd 6f db 5a 3f
       0.5563131 0.4862731 -0.10238679 0.8549108
0001f0 83 cb c0 3c 10 7b 16 bf 7f db 89 3e 74 c9 a5 bd
       0.023534542 -0.5878153 0.26925275 -0.08095065
000200 59 c2 b7 3e 71 32 9a 3e 7c bc c4 3e e5 df ba 3c
       0.35890463 0.3011661 0.38425052 0.02281184
000210 48 6e 48 3f d6 e2 10 3f 07 f1 e1 bd bf c9 a9 bf
       0.78293276 0.56596124 -0.110323004 -1.3264693
000220 55 ec 29 bf f5 6e 0d bf a5 06 29 3f ab b9 82 bc
       -0.6637624 -0.5524743 0.66025764 -0.015957674
000230 92 ae 91 be 37 b9 5f 3e 04 4e 09 bf fa de 1b be
       -0.284535 0.21847998 -0.5363467 -0.15221778
000240 b5 ae 4b bf 26 8c 91 bf 7e 6f 91 bf 40 01 ac bf
       -0.79563457 -1.1370895 -1.136215 -1.3437881
000250 0b 82 36 3f 3d 0b bd 3e 15 53 b7 be 71 e1 f6 bd
       0.7129218 0.36922637 -0.35805574 -0.12054718
000260 a7 40 6a bf 8a ed 8f bf 84 78 6d 3f a9 d1 04 bf
       -0.915049 -1.1244366 0.9276202 -0.51882416
000270 a7 1f 4c 3d 2b 66 14 3f 49 ae 63 c0 b8 a9 a3 3e
       0.049834874 0.57968396 -3.5575125 0.31965423
000280 c2 61 85 3e 24 33 3e bf 3b b3 0d 40 20 b1 99 3e
       0.26051146 -0.74296784 2.2140644 0.30017948
000290 6f c4 88 3f b5 84 bb be 38 ed 73 bf 29 13 51 bf
       1.0684947 -0.36624685 -0.9528384 -0.8166986
0002a0 b4 3c d2 3d 0b 4b 96 bf 74 40 3a 3f 06 53 52 40
       0.102654845 -1.1741651 0.727546 3.2863173
0002b0 30 36 b4 3e 9c 21 9d be da 84 40 3f 27 b6 bb bf
       0.35197592 -0.30689704 0.75202715 -1.4664963
0002c0 45 e4 33 3f 83 36 ad 3d 5e d8 9e 3e 2d 4f 49 c0
       0.70270187 0.08457663 0.3102445 -3.1454575
0002d0 b7 c2 d8 be f8 1b d2 be 10 a7 b9 3e d5 2e 4b be
       -0.42336056 -0.41036963 0.3626027 -0.19842084
0002e0 93 cb a5 3d 61 99 8c 3f d2 48 83 be c2 3c 00 3f
       0.08095469 1.0984308 -0.25641495 0.5009271
0002f0 b9 5f dd 3f 16 09 6f be c8 aa 87 bf 59 e8 d0 3c
       1.7294837 -0.2334331 -1.0598993 0.025501417
000300 c3 8c 31 bf d1 4f 61 3f c4 28 f8 3f 64 8c ea bd
       -0.6935541 0.88012415 1.9387441 -0.11452559
000310 e9 63 ac be bb e7 8d 3e 13 cd a2 be 37 37 17 bf
       -0.33669975 0.2771586 -0.31797084 -0.59068626
000320 30 a4 68 bf f8 9e eb bf 57 59 96 be 43 42 d2 bf
       -0.9087553 -1.8407888 -0.29365036 -1.6426471
000330 10 a0 94 3f 2a fd 6c bd 06 fc 80 3f 39 a8 85 3e
       1.1611347 -0.057858624 1.0076911 0.26104906
000340 1e 12 21 3f a4 de 87 bf 09 27 f8 be 66 1b 29 3f
       0.6291827 -1.061482 -0.4846728 0.6605743
000350 db 38 f9 be fc 21 7b bf de 08 8b 3f 28 76 c0 3f
       -0.4867619 -0.9809873 1.0862081 1.5036058
000360 f7 d2 00 bd a8 be 41 3e 63 00 b7 3d 3d 62 cb be
       -0.03145119 0.18920386 0.08935621 -0.39723387
000370 87 fc 77 bc ee 37 90 3f 04 f2 89 bf 37 ae 42 3f
       -0.015135891 1.1267068 -1.0776982 0.7604708
000380 f5 a4 6a 3f 5c f5 6b 3f e7 0e c5 3e 82 57 d3 3f
       0.91657954 0.92171264 0.38487932 1.651108
000390 f8 84 bf 3f 0e cc e6 3d 23 24 ed 3e 11 5c 04 c0
       1.4962454 0.11269389 0.46316633 -2.0681193
0003a0 05 5f 8e be c1 65 95 3e 90 b3 7a 3f cb c2 ee bd
       -0.2780687 0.29179195 0.9793024 -0.116582476
0003b0 2a 3c e6 3e df 7b 94 bf 8e 86 90 be e4 10 27 bf
       0.44967777 -1.1600302 -0.28227657 -0.6526015
0003c0 8e d1 5b 3f da 88 31 3f b8 33 cf bf 2f 9d 73 bf
       0.8586663 0.69349444 -1.6187658 -0.9516172
0003d0 22 15 bf be df dc 25 bf 64 09 68 3d 04 07 91 be
       -0.3732081 -0.6479015 0.05664958 -0.28325665
0003e0 c2 b9 03 be 84 ad 9c 3f 7e c5 f3 be cb 44 64 3f
       -0.1286383 1.2240453 -0.47611612 0.8916747
0003f0 61 ee da bf 0e 12 a6 bf 7e 59 4d 3f 1e 1e 95 3d
       -1.7103997 -1.297426 0.8021468 0.07281135

lstm.bias_ih_l0 f4 [256]
000000 0d 20 24 bf 45 4f c5 be b8 06 1a 3f 6d fa 5c bf
       -0.64111406 -0.3853704 0.601665 -0.8631962
000010 6e 79 9e be 9f c7 54 bf 1c ce e9 be d9 96 8e be
       -0.30952018 -0.831171 -0.4566506 -0.27849463
000020 f4 35 36 3e b3 a0 ce be 14 c0 d4 be 3e fe 08 ba
       0.17794019 -0.4035698 -0.41552794 -0.00052258733
000030 85 04 0b 3d e4 78 87 bf 7a 37 8e be e3 31 05 bf
       0.033939857 -1.0583768 -0.277767 -0.52029246
000040 a9 ac d8 be 3b 39 9c bc 2d fa e9 3e 3e 4d 27 3d
       -0.4231923 -0.019070258 0.4569868 0.04084515
000050 05 fe 89 be 6a 03 8d 3e ae 69 f0 be 3a b2 19 bf
       -0.26951614 0.27541667 -0.46955627 -0.6003758
000060 a4 89 5e be e9 93 ed be 0e 19 c3 be 92 dc 84 bd
       -0.21732193 -0.4640191 -0.38105053 -0.06487383
000070 58 e4 67 bf e4 61 20 bf f9 a4 a6 3e cb 68 67 bf
       -0.905828 -0.6264937 0.3254774 -0.90394276
000080 3e e1 48 bf 87 7d c0 be d5 41 7e 3f 40 91 21 bf
       -0.7846869 -0.3759577 0.993192 -0.6311226
000090 93 af 82 be da cf 05 bf ef 26 ee bd 44 57 11 bf
       -0.25524577 -0.5227028 -0.1162852 -0.5677378
0000a0 e4 55 1d bf 0a 31 02 3e 9b 95 02 bf 0e c7 37 3f
       -0.61459184 0.1271402 -0.5100953 0.7178811
0000b0 69 63 3f bf b1 b8 17 bf d7 1e 43 bf ef f3 c5 bd
       -0.7476106 -0.5926619 -0.7621893 -0.09665667
0000c0 f6 6d 22 bf cf e2 01 bf ad 49 26 bf 1c 1b ab 3f
       -0.6344904 -0.5073671 -0.6495617 1.3367648
0000d0 f7 98 f6 be ee ab 09 bf 10 44 26 be 53 04 a1 bb
       -0.48163578 -0.5377797 -0.16236901 -0.0049138456
0000e0 a4 2d 6f bf 55 22 29 bf 69 c7 05 bd 16 24 4f bf
       -0.9342902 -0.6606801 -0.032660875 -0.8091444
0000f0 d1 91 8c be db 65 76 bf 9e 52 0c be 56 26 9f bd
       -0.27455 -0.9624917 -0.13703391 -0.07770984
000100 8b d4 2a bf cd d4 7a bf 47 8f bf be dd 52 2d bf
       -0.66730565 -0.9798096 -0.37414 -0.67704564
000110 30 23 57 bd 0c 9e 1a bf 8e 74 11 bf a9 99 83 bf
       -0.05252379 -0.6039741 -0.56818473 -1.0281268
000120 32 f4 d0 3d b3 74 32 bf 16 1a 92 be 19 7a 42 be
       0.102028266 -0.6970932 -0.28535527 -0.18991889
000130 ee 16 53 be ef 84 42 bf 8a 38 0b bf ad 64 87 bf
       -0.20614216 -0.7598409 -0.54383147 -1.0577599
000140 ca 17 fa bd da a1 e1 3d df 29 0f 3e 51 84 60 bf
       -0.12211569 0.11017199 0.13980816 -0.877019
000150 86 61 16 bf 42 ca 38 be 6d 80 5d bf ac e3 33 bf
       -0.5874256 -0.18045905 -0.8652409 -0.70269275
000160 05 eb 0e bf b2 c4 4f bf e9 1c 65 3a f9 04 01 be
       -0.5582736 -0.8115951 0.00087399647 -0.12599553
000170 f4 35 3e bf d5 b2 8a bf a3 94 99 be d3 65 12 bf
       -0.74301076 -1.0835825 -0.29996213 -0.5718662
000180 b6 09 80 be e7 3a ad be ac 49 18 be 2b 51 3f bf
       -0.2500741 -0.33834 -0.14871854 -0.7473323
000190 76 cc 2a bf 18 df a0 be b8 58 ba be 5f 7f 2f bf
       -0.6671823 -0.31420207 -0.36395812 -0.6855373
0001a0 de 2d d8 bc e6 64 c3 3c d5 b8 4f bf 1a 67 b3 be
       -0.026389059 0.023851823 -0.81141406 -0.35039598
0001b0 30 d0 e9 be 52 46 63 bf 82 54 b5 be 1c 6f 11 be
       -0.45666647 -0.88779175 -0.35416037 -0.14202541
0001c0 89 de 7a be a5 67 a2 bd a7 4d 26 bf 8f 5f e5 be
       -0.24498953 -0.07929925 -0.6496224 -0.44799468
0001d0 61 01 67 bf 60 53 4d bf b7 04 c8 bd bd b1 0d bf
       -0.9023648 -0.80205345 -0.09766524 -0.5534933
0001e0 ff 7f 6f be 3b 14 22 bf 11 f9 6a bf ea 29 43 bf
       -0.2338867 -0.6331212 -0.91786295 -0.7623583
0001f0 09 02 6e be b5 dc 5d bf 6c 91 50 bf 30 d4 79 be
       -0.23242964 -0.866649 -0.81471896 -0.2439735
000200 28 ed 2d 3e 1f db c5 bd 03 0c b2 3d 47 83 d2 bd
       0.16984999 -0.09660935 0.08693697 -0.102789454
000210 34 b3 1f 3e 0d 65 d1 3d c5 c1 3d 3e e7 ef 7f bd
       0.15595704 0.10224352 0.18530948 -0.062484648
000220 44 15 21 be 92 c4 09 3d 10 36 88 3b 21 47 91 be
       -0.15730768 0.03363473 0.0041568354 -0.2837458
000230 ef 3a 0b be 78 43 97 3d a0 46 d3 3b 96 5e f3 bc
       -0.135967 0.073859155 0.006447628 -0.029708188
000240 09 5a f6 bd 8d c7 b1 be 2a 88 5c be 55 8f 4d 3d
       -0.120288916 -0.34722558 -0.21536317 0.05018552
000250 c4 f7 f3 3c 82 a1 87 3c c1 b7 77 3e 55 05 2e bd
       0.02978123 0.016556505 0.2419119 -0.042485554
000260 23 42 2d be 36 d0 18 be 2a aa ab 3e d8 79 39 bd
       -0.1691976 -0.14923176 0.33528262 -0.045282215
000270 f4 61 97 3d 88 dd 04 bc 57 a1 08 bd c6 06 f9 3c
       0.0739173 -0.008109458 -0.03335699 0.030398738
000280 e7 39 c2 3d 4c 1d 9a bd e7 fb aa 3e 7d 69 45 bd
       0.094837 -0.07525119 0.3339531 -0.048196305
000290 08 75 fb 3d 66 60 a7 bb f4 a0 3b 3d 54 47 f1 bd
       0.12278181 -0.005107927 0.045807794 -0.11781183
0002a0 d2 0f c3 3d 3e c1 12 be c9 06 de 3d 5c 9b bb 3e
       0.09524502 -0.14331529 0.10841138 0.36641967
0002b0 6c 66 ab 3c 79 14 82 3d 59 d3 0f 3e 9b c0 a5 bc
       0.020922862 0.06351561 0.14045466 -0.020233443
0002c0 8b 31 d1 bc 7a 2a c2 bd e7 eb 5e bd 0f 41 b0 be
       -0.02553632 -0.09480758 -0.054424193 -0.34424636
0002d0 4c 42 6d bd f0 e0 31 3e 6f d5 30 3e 2f b6 26 3e
       -0.057924554 0.17370963 0.17268918 0.16280435
0002e0 43 08 9b 3d 07 44 7b bc 2a cb b3 3d 3c 2e cc 3e
       0.07569935 -0.015336043 0.08778985 0.39879024
0002f0 75 0c 83 3e 84 d2 33 bd c8 61 71 bd eb a7 b3 be
       0.2559544 -0.043901935 -0.058931142 -0.3508905
000300 d2 5a 30 bf 8f 30 06 bf f8 20 5e 3e 0c 53 6e bf
       -0.6888858 -0.52417845 0.21692264 -0.9309547
000310 5f f4 ac bd c6 d3 92 bf 21 49 c2 be fa 47 b9 be
       -0.084450476 -1.1470878 -0.37946418 -0.36187726
000320 1d db a2 3e d8 21 c3 be 8d df 1b bf af cc c4 3e
       0.31807795 -0.38111758 -0.60887986 0.3843741
000330 28 46 46 be 1b b3 75 bf 47 1f b6 3d de 7e 70 bd
       -0.193627 -0.9597642 0.088926844 -0.05871474
000340 be 6c cc be af c1 f0 3e 43 94 16 3f 1e 14 7a be
       -0.39926714 0.4702277 0.5881998 -0.24421737
000350 3c e9 bc be a3 08 01 bd cd e2 cd be 50 7a 3d bf
       -0.36896694 -0.031502377 -0.40212098 -0.7401476
000360 4e bb 76 be c2 de da be bf 01 fb bd e9 7b 4c be
       -0.24094889 -0.42748076 -0.122561924 -0.19969143
000370 c3 26 5f bf 3d c2 0f bf c7 fb 66 3e e3 2d 88 bf
       -0.8716852 -0.5615576 0.22556983 -1.0639004
000380 7c 57 2e bf d0 0f 92 be bf 9f 05 3f 9b fe eb be
       -0.6810224 -0.2852769 0.5219688 -0.46092686
000390 60 a3 04 bf 89 c7 01 bf 2e 19 b1 be 63 41 39 bf
       -0.5181179 -0.5069509 -0.34589523 -0.723654
0003a0 6d a8 1e bf ca e9 8b 3e 05 e1 31 bf 90 47 19 3f
       -0.6197575 0.27326804 -0.6948398 0.5987482
0003b0 d5 3b 95 bf 1f a5 05 bf 24 92 1b bf 43 54 2e be
       -1.1658884 -0.5220508 -0.6076987 -0.17024331
0003c0 0d 60 ff be ef 6f 86 be 77 92 82 bf 44 4c c6 3f
       -0.49877968 -0.26257274 -1.0200948 1.5492024
0003d0 dd 3b 24 bf 69 75 09 bf f6 f4 5a be ee e6 ee be
       -0.64153844 -0.5369478 -0.21382508 -0.4666056
0003e0 d7 aa 7e bf c4 21 47 bf ec 68 af be 60 de fc be
       -0.9947943 -0.777859 -0.34259737 -0.4938841
0003f0 ab df 99 be 13 8f 39 bf 13 c3 12 be 33 3b a2 bd
       -0.30053458 -0.7248394 -0.14332227 -0.079214476

lstm.bias_hh_l0 f4 [256]
000000 fb 39 56 bf 9b 23 ff be 0d 3e b7 3e b7 5e 46 bf
       -0.8368222 -0.49831852 0.35789528 -0.77488273
000010 d4 bb 31 be ce a5 81 bf 6a 92 e5 be 3a 3f 66 be
       -0.17356807 -1.0128725 -0.44838268 -0.22485057
000020 d3 54 7d 3e e2 ca c1 be f1 79 d6 be 1c 2c 13 be
       0.24739389 -0.378501 -0.4188991 -0.14372295
000030 ba e1 e0 3d 6d 12 6a bf 6c 20 da be 82 66 05 bf
       0.10980554 -0.91434366 -0.4260286 -0.5210954
000040 7f 40 f7 be 8a 1e 2a bd 86 17 dc 3e 20 1a 20 be
       -0.48291394 -0.04153303 0.42986697 -0.15634966
000050 93 bb b2 be c8 b3 00 3e 03 c9 1f bf 3f 89 c3 be
       -0.34908733 0.12568581 -0.62416095 -0.38190648
000060 6c c7 dc be 88 8b ee be 1c 97 db be 6a 33 f9 bc
       -0.43120897 -0.4659083 -0.42888725 -0.030420024
000070 92 d8 51 bf b4 10 56 bf b6 2f 62 3e ce ab 7d bf
       -0.81971085 -0.83619237 0.22088513 -0.9909028
000080 1e b5 3e bf e0 cd bd be a3 a6 89 3f 1b 0f 1d bf
       -0.7449511 -0.37071133 1.0753978 -0.61351174
000090 01 ec 12 be b1 a9 14 bf 8a df 06 be 2b 12 fb be
       -0.14347841 -0.5807143 -0.13171211 -0.490373
0000a0 28 32 17 bf 50 96 9e 3e d0 c0 01 bf 13 1e 47 3f
       -0.5906091 0.30974054 -0.50684834 0.77780265
0000b0 da b1 58 bf c9 48 16 bf fa 2b 2b bf 62 ed af bd
       -0.8464638 -0.5870481 -0.6686398 -0.08590199
0000c0 8b d8 17 bf cc ec 09 bf 16 b0 40 bf 78 e6 b8 3f
       -0.59314793 -0.5387695 -0.75268686 1.4445333
0000d0 64 9d 0a bf b0 51 0b bf 67 63 49 be 98 3c 13 3d
       -0.5414641 -0.5442152 -0.19666825 0.03594646
0000e0 a4 8b 64 bf 28 07 13 bf c0 a5 6f bb 4e 13 23 bf
       -0.89275575 -0.57432795 -0.00365673 -0.6370133
0000f0 89 f0 30 bd 8f 02 64 bf ec a8 49 3d 56 2c 51 be
       -0.043198142 -0.89066404 0.049233362 -0.20427069
000100 9d 4b 48 bf 53 94 51 bf a0 22 54 be 31 bd 34 bf
       -0.78240377 -0.8186695 -0.20716333 -0.70601183
000110 d7 b6 06 3b 9a e0 43 bf 1e bd 03 bf 14 cf 80 bf
       0.0020555758 -0.7651459 -0.51460445 -1.0063195
000120 b0 e1 8e 3e c0 84 35 bf 55 ec b2 be 45 d7 cc be
       0.2790656 -0.70905685 -0.34945932 -0.40007988
000130 f0 5f 1f be 34 bf 5c bf 2a b9 17 bf fa 32 62 bf
       -0.15563941 -0.8622925 -0.5926691 -0.88359034
000140 0f 7d a8 3d e3 e7 5d bd 6c 59 9c bd 28 e4 4b bf
       0.08226978 -0.054176223 -0.07634243 -0.79645014
000150 91 2a cf be b6 d6 8d be a8 a0 55 bf 5b 4e 30 bf
       -0.40462163 -0.27702874 -0.83448267 -0.6886956
000160 67 7b 0b bf 72 47 27 bf f3 cd 0f 3d 3e 94 1b be
       -0.5448517 -0.6534339 0.035108518 -0.15193269
000170 98 a2 50 bf 3a 88 73 bf 78 1b 83 be 75 52 f7 be
       -0.814981 -0.9512974 -0.25606894 -0.48305097
000180 51 ca 75 be 7a 8f ac be 36 a0 ff bd 01 f1 2d bf
       -0.24002959 -0.33703214 -0.1248173 -0.6794587
000190 76 a7 53 bf 84 e5 da be 61 82 9c be 1b 89 64 bf
       -0.826774 -0.42753232 -0.3056822 -0.89271706
0001a0 af c4 08 bd 00 4f dd bb cb 94 4a bf d3 e8 88 be
       -0.033390697 -0.0067538023 -0.7913329 -0.2674013
0001b0 73 98 f5 be 36 ba 6b bf 88 6d 52 be cd 65 8e be
       -0.47967872 -0.9208101 -0.20549595 -0.27812043
0001c0 e5 fe 40 be a1 27 39 be ac d7 19 bf 2a 83 f5 be
       -0.18847235 -0.18081523 -0.60094714 -0.47951633
0001d0 1e 82 6b bf 3f 36 1d bf 19 7d 29 be 7e 45 ff be
       -0.9199542 -0.614109 -0.16551627 -0.49857706
0001e0 03 16 75 be bb 64 ef be d9 cc 46 bf 45 dc 29 bf
       -0.23934178 -0.4675654 -0.7765632 -0.6635173
0001f0 25 5b 2e be 02 ff 25 bf d7 b5 1b bf 23 c2 0e bd
       -0.17026956 -0.64842236 -0.6082434 -0.034853112
000200 ba 8c 8d 3e 50 34 cf bd 1a df 1c 3e ba aa 41 be
       0.27646428 -0.101174 0.15319481 -0.18912783
000210 19 fe 3f 3e 3f 21 5d 3d 8f df bf 3c fd 7f 32 3c
       0.18749274 0.053986784 0.02342203 0.010894773
000220 83 3d c7 bd e6 0e e4 bb be 99 6c 3d f7 f7 7f be
       -0.09728529 -0.006959784 0.057763807 -0.24996935
000230 02 4c d4 bc ff 38 2e 3c e9 f5 62 bd a4 8a b4 3d
       -0.02591515 0.010633706 -0.0554103 0.08815506
000240 e1 e2 74 be 61 e4 5d be a0 57 d5 be 26 b3 e0 bd
       -0.23914672 -0.21669151 -0.41668415 -0.1097167
000250 c6 5d 8c 3d 6b 1c 5b 3e ae 91 13 3e a0 99 67 3d
       0.06853823 0.2139756 0.14411041 0.056542993
000260 6c 0d 8e 3b af f6 6e 3d 27 73 8e 3e f7 82 4d be
       0.004335096 0.058340725 0.2782223 -0.2006949
000270 00 2b f0 3d c3 75 dc 3d d5 0c f6 bc ce e2 34 bd
       0.117269516 0.10764649 -0.030035416 -0.04416161
000280 6d c6 30 bc be b4 3d be 5e 73 90 3e bc 2d 9b 3c
       -0.010789496 -0.18525979 0.28213018 0.018942706
000290 d5 79 4d 3d 62 42 da bc 60 b5 85 bd bc 48 15 bd
       0.050165016 -0.026642982 -0.06528735 -0.036446318
0002a0 f4 e2 6a 3d 54 ba bc be 07 4f db 3d 14 25 27 3e
       0.057345346 -0.36860907 0.10708433 0.16322738
0002b0 c4 8a db bd af 3f 24 3e ab a7 03 3e f9 4f c4 3b
       -0.10719827 0.16039918 0.12856929 0.005990979
0002c0 14 f9 5e 3d 6d b5 d2 3c 87 56 86 bc 40 e6 59 be
       0.05443676 0.025721276 -0.016398681 -0.2127924
0002d0 b1 c2 50 3d a7 4f f3 3d 44 42 a1 3d f9 41 e9 3d
       0.050966922 0.11880427 0.07873967 0.113895364
0002e0 72 1e 84 3d 66 2f 14 3e a3 9f 18 bd 86 4f b8 3e
       0.064511195 0.14471206 -0.037261616 0.35998172
0002f0 5f 9f 3b 3e 08 3c 23 bd e9 c7 eb 3b c6 3f 67 be
       0.18322514 -0.039852172 0.007195462 -0.22582921
000300 9f 14 0b bf 49 4d 03 bf b1 49 a4 3e 23 d9 78 bf
       -0.5432834 -0.512898 0.32087472 -0.97206324
000310 5a 4f f2 bd 35 d4 88 bf 0f 11 86 be 38 f4 4e be
       -0.11831541 -1.068976 -0.2618489 -0.2021035
000320 b3 7b b3 3e 40 d8 9d be 04 ed 1d bf be 32 94 3e
       0.35055313 -0.30829048 -0.6168978 0.28944963
000330 38 83 45 be 98 2f 52 bf 26 eb e5 3d c4 5f a6 bc
       -0.19288337 -0.8210387 0.11226492 -0.020309336
000340 15 a4 13 bf f0 12 aa 3e e5 00 23 3f b5 57 dc bd
       -0.57672244 0.33217573 0.6367324 -0.10758916
000350 d5 40 91 be a8 b9 93 3d 08 05 ea be 7b 14 5c bf
       -0.28369775 0.072131455 -0.45706964 -0.8596875
000360 56 7b 67 be 5d ea c9 be 0a 02 27 be 9c 7e 70 bd
       -0.22605643 -0.39436617 -0.16309372 -0.058714494
000370 af 23 8a bf 68 3e 14 bf 65 dc 38 3e 0f 8c 6d bf
       -1.079214 -0.57907724 0.18052824 -0.9279184
000380 e3 98 27 bf ee fd 89 bd c4 f3 04 3f 63 11 ba be
       -0.6546766 -0.06737886 0.51934457 -0.3634139
000390 7d a4 e3 be f3 1b c4 be 65 06 85 be ea 9c 3d bf
       -0.44461432 -0.38302574 -0.2598144 -0.74067557
0003a0 4d 08 ea be 3a 7e a6 3e 91 1e 42 bf 19 d9 0a 3f
       -0.45709458 0.32518178 -0.7582789 0.54237515
0003b0 3c 5e a5 bf 91 42 ab be 1e 63 26 bf 5b c5 8c bd
       -1.2919383 -0.33449224 -0.6499499 -0.0687358
0003c0 bf 19 db be 00 26 8c be 91 75 72 bf c7 31 c0 3f
       -0.4279308 -0.27372742 -0.9471064 1.5015191
0003d0 9f 96 fb be b7 9d 0b bf 18 6c a4 be 8e 1d ab be
       -0.49138352 -0.5453753 -0.3211372 -0.33420986
0003e0 61 6a 58 bf 45 df 1f bf 6f 95 f2 be 38 15 02 bf
       -0.8453732 -0.6245006 -0.47379634 -0.5081363
0003f0 f9 fb 01 bf 0c 53 5a bf d8 1b 7b be 9a 16 4d be
       -0.50775105 -0.8528297 -0.2452234 -0.20028153

bn.weight f4 [64]
000000 dc 92 0f 3f ed 4c 19 3f 52 2b a6 bd 2d c1 10 3f
       0.56083465 0.59883004 -0.081137314 0.5654476
000010 a6 f7 2e 3f e7 7f 12 3f 89 52 08 3f e4 e5 13 3f
       0.6834663 0.57226413 0.5325094 0.5777266
000020 57 cb 25 3f 52 eb d0 3e 2d 2b d2 3e b7 8f 9f 3d
       0.64763397 0.40804535 0.41048566 0.07791083
000030 fb 74 28 3d d4 91 3f 3f 11 06 38 3e 2a 08 14 40
       0.041127186 0.7483189 0.17971064 2.3129983
000040 03 b8 bf 3d d4 b9 13 3e f8 36 ea 3a bd ee 08 3f
       0.09361269 0.14426357 0.0017869165 0.53489286
000050 98 bd 06 3f 9c bb 1d 3f 40 ac 14 3f 26 bb f3 3e
       0.5263305 0.61614394 0.5807533 0.4760372
000060 0f 53 19 3f 06 27 14 3f 88 18 87 3e 5e 34 b2 3e
       0.5989236 0.57872045 0.26385903 0.34805578
000070 85 f8 0b 3f 58 fd 2e 3f c1 57 fc bc 05 5a 31 3f
       0.54676086 0.6835532 -0.030803563 0.69277984
000080 92 e8 3d 3f 84 8e f8 3e 15 b0 af bb fe 74 39 3f
       0.74183 0.4854623 -0.005361567 0.7244414
000090 6e 38 2b 3f b2 81 25 3f ee 78 21 3f 23 e2 52 3f
       0.6688298 0.64651024 0.6307515 0.8237631
0000a0 ba 13 8d b7 31 b9 65 3e 9c b5 52 3f 5d 16 85 3c
       -1.6817696e-05 0.22433926 0.82308364 0.016246015
0000b0 c0 e8 37 3f d8 4f 20 3f 92 56 19 3f 2d c5 2b 3f
       0.71839523 0.6262183 0.5989772 0.6709774
0000c0 b7 8f 7f 3e df 33 aa 3e 1d 99 08 3f 10 ab 05 3e
       0.24957167 0.332427 0.5335863 0.13053536
0000d0 c2 6b 0f 3f b8 6e 17 3f d0 40 05 3e 0c 0d 08 3f
       0.560238 0.5915332 0.13013005 0.5314491
0000e0 d3 c1 4a 3f f8 dd 21 3f 88 4b ef 3f 89 99 4d 3f
       0.79202 0.6322932 1.8694925 0.803124
0000f0 79 35 9e 3f 25 26 64 3f e9 05 f7 3e a6 9d dc 3e
       1.2360069 0.89120704 0.48246697 0.43089026

bn.bias f4 [64]
000000 f9 34 64 3f 1b 65 4c 3f 07 2b 86 bd 2d 75 53 3f
       0.8914333 0.79841775 -0.065511756 0.8260067
000010 3a 6c 4f 3f d2 cd 50 3f 19 dc 5c bf e9 f9 e6 3e
       0.81024516 0.81564057 -0.8627334 0.4511254
000020 41 a9 4b bf a6 08 59 3f 33 87 19 3f 2f 03 16 bc
       -0.79555136 0.8477882 0.5997192 -0.009156032
000030 25 30 37 3d c9 d2 18 bf ac 1e 2f bd e4 32 b6 3d
       0.04472365 -0.5969663 -0.04275386 0.08896425
000040 7e a2 79 3c 6b f0 4b bd cd 0f 82 3c 88 9a 46 bf
       0.015236495 -0.049789827 0.015876675 -0.77579546
000050 3c ee 85 3f 5b 34 51 3f b6 5c 4d bf a7 ac 65 3f
       1.0463328 0.81720513 -0.8021959 0.8971657
000060 2b 83 42 bf 33 ad 58 bf 2f 92 92 3e 51 82 86 3e
       -0.75981396 -0.8463928 0.28627154 0.262713
000070 39 eb 5f bf b5 58 53 3f cd fc f1 3c e9 3a 1a 3f
       -0.87468296 0.8255723 0.02953949 0.6024614
000080 eb 60 2e bf f0 ce 51 bf db c1 93 3b 7a 08 31 3f
       -0.68116635 -0.81956387 0.0045091934 0.6915356
000090 23 56 45 3f b3 8f 26 bf d6 ba 44 bf 5f 7c f0 be
       0.7708456 -0.6506302 -0.7684759 -0.46969888
0000a0 b0 4d 9b b7 77 e2 cd 3e 62 9d 00 3f 27 9f 26 bc
       -1.8513616e-05 0.4021184 0.5024015 -0.010169781
0000b0 27 c2 1d bf 47 71 3b bf 54 ce 5a 3f 10 4a 55 bf
       -0.6162438 -0.7321972 0.8547108 -0.83316135
0000c0 f6 f0 22 3e 2a 00 c1 be 1f 98 59 bf d8 10 24 3e
       0.15912232 -0.37695438 -0.84997743 0.1602205
0000d0 67 16 80 bf d4 53 43 bf d8 32 1e 3e 7a a3 02 bf
       -1.0006837 -0.76299787 0.15449083 -0.51030695
0000e0 2b ee 0e bf a1 34 3a 3f b4 db 03 3e 40 a1 ea be
       -0.55832165 0.72736555 0.12876779 -0.4582615
0000f0 f7 b8 b9 3e fe b7 13 bf b9 bc 74 bf be 2e 5a 3f
       0.3627393 -0.57702625 -0.9560047 0.8522757

bn.running_mean f4 [64]
000000 07 fa 49 3c ea 8d cd 3b f4 08 8d be 81 36 a8 3c
       0.012327678 0.006273021 -0.27545893 0.020533802
000010 7a 3b 22 3d 57 cf 03 3c 19 94 bd bc 4a 69 bf 3c
       0.039607503 0.008045039 -0.023141908 0.023365635
000020 05 3d 16 be d2 5f 90 b8 2b d3 65 3d f4 1a 8c bd
       -0.14671715 -6.884303e-05 0.05610959 -0.068410784
000030 b5 47 60 3d c7 0d d0 bc fc 24 f5 bc c3 ea 46 39
       0.054755885 -0.025397195 -0.029924862 0.00018970207
000040 cd 04 d4 bd 37 69 a3 be bf 17 53 be 29 53 21 bc
       -0.10352478 -0.3191621 -0.20614527 -0.009846487
000050 4d 2b 5d 3d 10 8c 31 3d d3 b1 9d bd 13 3f 3a 3d
       0.053996373 0.043346465 -0.07699933 0.04547031
000060 3f 18 2e be f1 80 aa bc d2 f3 69 3e bc 51 23 3e
       -0.17001437 -0.020813437 0.22846916 0.15949148
000070 b5 93 69 bc 04 f6 cf 3b c0 51 ce be bb 82 fe 3b
       -0.0142564075 0.006346466 -0.40296745 0.007767049
000080 f5 d6 c0 bc fa 14 87 bc 60 1f 00 3f 07 ba 02 3c
       -0.02354 -0.016489495 0.50047874 0.007978923
000090 ac b3 02 3c 11 4b 29 bd 6f fe 50 bc dd f9 e7 ba
       0.007977407 -0.041331355 -0.012755974 -0.0017698366
0000a0 dc 31 90 3d ad 84 1b be a2 30 23 3b b7 3f 9d 3e
       0.0704076 -0.1518733 0.0024900814 0.30712673
0000b0 ab 1f 52 bd 28 12 b0 bb a5 cd 70 3d 6b 36 9f bc
       -0.051299732 -0.005373258 0.058789868 -0.019435128
0000c0 f6 1e 74 3d 1e 03 ab bd 91 f1 65 bc 8f fa 1f bd
       0.05959984 -0.08350204 -0.014034645 -0.03905731
0000d0 48 72 4b bc 71 7a 13 bc 55 00 4a 3d 3f 35 0f be
       -0.0124173835 -0.00900136 0.049316723 -0.13985156
0000e0 2d d7 13 bd 5e ff cc 3b 97 78 54 39 05 83 ba bc
       -0.03609388 0.006256028 0.00020262819 -0.022767553
0000f0 e6 ef 58 3a fc 20 36 bb cd 36 df bc 29 bc 97 3c
       0.0008275494 -0.0027790656 -0.02724781 0.018522339

bn.running_var f4 [64]
000000 62 30 28 38 db 35 6c 37 f8 bf 52 3c 8a c6 76 39
       4.009938e-05 1.4079235e-05 0.012863152 0.0002353435
000010 12 73 49 3a bd 9a 0e 38 7e 18 17 39 22 67 d8 39
       0.00076846883 3.399955e-05 0.00014409606 0.0004127557
000020 a5 5d 8a 3b af 4a 94 38 ac a9 c4 3a 70 88 df 3a
       0.004222589 7.071101e-05 0.001500418 0.0017054211
000030 2d 8e 3e 3b 32 0f 9c 3a c3 ba 88 3c c2 ea b2 33
       0.0029076443 0.0011906384 0.016690617 8.331473e-08
000040 b8 47 a4 3b 74 df 09 3d 03 f8 d7 3d ca ea 89 38
       0.0050134324 0.033660367 0.10545351 6.576402e-05
000050 d7 b5 d8 39 d1 28 5e 3b 5f 25 72 3b 54 c6 20 3a
       0.00041334212 0.003389884 0.0036948544 0.0006133069
000060 6a 3e 61 3b 03 33 3d 39 a1 2e db 3c 13 9e 8e 3b
       0.0034369477 0.00018043448 0.026755633 0.00435234
000070 44 7b 94 38 36 54 9a 37 00 b6 14 3c 54 29 8a 38
       7.08015e-05 1.8397444e-05 0.009076595 6.588051e-05
000080 40 fe 04 3a c0 85 cd 38 2e 3f 9b 3c 75 d3 19 38
       0.00050732866 9.8000746e-05 0.018951025 3.6674977e-05
000090 c5 f2 54 38 c1 84 81 3a 0d 20 f4 38 d9 a9 cf 35
       5.0770836e-05 0.0009881483 0.000116407966 1.5472134e-06
0000a0 73 31 f2 3b c0 86 8d 3c 81 39 f2 35 fb 85 2c 3c
       0.0073911487 0.017276168 1.8047141e-06 0.01052999
0000b0 ba 84 30 3b 04 72 53 37 76 61 8a 3a a8 31 c0 39
       0.002693458 1.2603126e-05 0.001055761 0.0003665809
0000c0 84 03 ab 3c 21 cf 90 3b 33 95 81 38 65 3d de 3c
       0.0208757 0.004419223 6.17899e-05 0.027128885
0000d0 80 de 26 38 e1 20 be 37 8e 12 0f 3b e7 02 d6 3b
       3.9784703e-05 2.2665075e-05 0.0021831128 0.0065311077
0000e0 80 7d 1e 3b 82 a1 de 36 4b 40 7f 34 c2 05 dc 3a
       0.002418369 6.6349176e-06 2.3772115e-07 0.0016786384
0000f0 0a 08 ad 35 32 e2 82 35 57 69 4f 39 43 74 57 3a
       1.2891844e-06 9.751586e-07 0.000197803 0.00082189235

fc.weight f4 [2, 64]
000000 be fc 8a 3e d6 e7 00 3e 16 45 12 3b c2 11 7d 3e
       0.27145952 0.12588438 0.002231901 0.24713805
000010 d3 74 b5 3d da 27 85 3e 13 a8 36 be 5e aa 3f 3e
       0.08860173 0.26006967 -0.17837553 0.18717334
000020 e8 6d 44 be 3c 6a a4 3d 2c c0 97 bc 85 04 98 3d
       -0.19182551 0.08028075 -0.018524252 0.07422737
000030 2f 09 39 3d e9 94 9d be ad f5 a1 bd fe 24 72 3f
       0.045174774 -0.30777672 -0.07908187 0.94587696
000040 5b fe 89 bd b8 33 d8 bd dd bd 23 3c 3f f3 1f be
       -0.067379676 -0.105567396 0.009993997 -0.15620135
000050 11 80 f8 3d 62 cf e5 3d a5 b0 52 be 4a 22 05 3e
       0.12133802 0.11221196 -0.20575197 0.13001361
000060 e9 c3 ab bd 42 5e a0 be 16 0c d0 bb 55 f3 39 bc
       -0.08386976 -0.31321913 -0.006349097 -0.011349519
000070 50 2a 43 be c2 ff a1 3e 17 9f 02 3d a7 cf ac 3e
       -0.1905911 0.3164044 0.03189 0.33752176
000080 82 6f 7f be 63 43 04 bd 66 a9 8a bd 38 a1 82 3e
       -0.2494488 -0.032290827 -0.067705914 0.25513625
000090 d8 fe cd 3d b3 1b b7 bd ad a1 a6 be 37 97 87 be
       0.10058373 -0.0894083 -0.32545224 -0.26482555
0000a0 21 4e 20 bd 0a 19 e9 bc 30 32 7b 3e e3 e6 41 3d
       -0.03913701 -0.028454322 0.24530864 0.04733933
0000b0 d0 cd 08 be 05 93 56 be 71 0c ef 3d e2 f6 30 be
       -0.13359761 -0.20954521 0.11672295 -0.17281678
0000c0 b6 5e b4 3d 2f 55 d8 bd 1a 24 51 be 4f fe 07 3e
       0.08807127 -0.105631225 -0.20423928 0.13280605
0000d0 2f f0 f8 bd 24 60 08 be b8 4c bb 3d 14 d2 02 bd
       -0.121551864 -0.13317925 0.09145492 -0.031938627
0000e0 b5 28 96 be b9 4c 84 3e 21 5b 31 3f 3e a9 84 be
       -0.29327932 0.25839785 0.69279677 -0.25910372
0000f0 8b a4 95 3e 64 f4 49 be c0 6b 05 be f4 3c 19 3e
       0.292271 -0.19722134 -0.13029385 0.14964658
000100 1e 54 8f be 95 44 49 be 7a 36 ee 3d e8 3a 57 be
       -0.27993864 -0.19655068 0.11631484 -0.21018565
000110 66 37 6c be 6c 89 76 be 36 f0 2f 3e 84 a2 8e bd
       -0.23068008 -0.2407586 0.17181477 -0.06964591
000120 ac f9 79 3d e0 10 ec bb ba 21 0b be 4d 29 c0 3b
       0.06102912 -0.00720416 -0.13587084 0.0058642984
000130 a9 5b 41 bc 99 0b a2 3e 5b be 21 3e 95 68 57 bf
       -0.011801639 0.31649473 0.15795271 -0.84143955
000140 e2 fe 2e bb 27 63 0f bd d7 01 0c 3a da 71 e5 3d
       -0.0026702215 -0.03500667 0.00053408503 0.11203356
000150 e0 80 b1 be be 55 63 3d 47 2f 50 3e b3 84 45 be
       -0.34668636 0.055501692 0.20330535 -0.19288902
000160 8a 89 db 3d 54 ec a5 3e e8 10 48 be 09 11 f3 bd
       0.10719593 0.32406867 -0.19537699 -0.118684836
000170 e2 97 7d 3e 03 84 81 be 30 bb a5 3d f0 84 aa be
       0.2476497 -0.2529603 0.08092344 -0.33304548
000180 89 67 6b 3e c1 c5 44 3e e1 7a 96 bd b5 1b 81 be
       0.22988714 0.19216062 -0.07347656 -0.2521645
000190 55 4e 9c be 32 1a 28 3e 7d 82 64 3e d9 82 89 3e
       -0.30528513 0.16416243 0.22315402 0.2685764
0001a0 41 3b 20 bd 1e 97 8f bc 24 6e 0f be 28 98 2a 3d
       -0.03911901 -0.017528113 -0.14006859 0.041649014
0001b0 de fa cd 3d 8e 44 0c 3e fd 28 83 be 4e f4 eb 3d
       0.10057615 0.13698027 -0.2561721 0.11521207
0001c0 92 9d bd bd b2 e6 02 3e 0b 27 89 3e ee 31 24 3c
       -0.0925857 0.12783316 0.267876 0.01002167
0001d0 68 c3 30 3e ce 13 1d 3e a0 e4 48 3d a7 46 bb 3d
       0.17262042 0.15339586 0.04904616 0.09144335
0001e0 f0 e7 bf 3e e8 bc 4d be be 16 30 bf 59 20 65 3e
       0.37481642 -0.20091593 -0.687847 0.22375621
0001f0 3d 44 3d be 91 eb a3 3e 76 6a 50 3e 57 82 55 bd
       -0.18483062 0.3201566 0.20353112 -0.052126255

fc.bias f4 [2]
000000 28 73 24 bf 3e 36 33 3f
       -0.64238214 0.7000464
