DeepBot/model/best_cnn_model.pth (torch, 72697 bytes, 10 tensors)

conv1.weight f4 [32, 1, 3]
-0.6104911 -0.11433582 -0.3009174 0.6999082 0.21955268 0.052761137 -0.47888327 0.36539835
0.18131039 -0.065668926 -0.28779888 0.7008526 -0.515744 0.5836774 0.002289387 -0.9578632
-0.0028849752 0.14206877 0.028265499 1.4880449 0.16481 -0.1884243 0.6434449 -0.33240026
-0.4066817 0.73405594 0.29218164 0.54358613 -0.8052289 0.08016794 0.7130282 0.4013187
0.49031177 1.2174168 -0.14990751 -0.0120462105 0.21314974 -0.5347242 -0.110908 1.0704226
0.064495586 -0.19606097 0.722034 0.33746088 -0.36525917 0.6849301 0.25650454 -0.045533396
-0.21413545 0.6977708 0.23596758 0.70602113 0.06221151 0.56217337 -0.092231356 -0.90981233
-0.40633714 1.0840117 -0.19268477 0.04635149 -0.58284444 0.36746064 -0.13450955 -0.16519365
-0.4928899 0.5097125 0.02612898 -0.04271304 4.6716247 0.0633101 -0.5620428 -0.17762813
-0.45511338 0.8268795 0.32627022 0.3480551 0.009040702 -0.65118474 0.009092744 -0.051201116
-6.654656 0.4398474 0.19968013 -0.15759628 0.6580899 0.13135222 0.3117543 0.42542255
-0.70380324 0.30714223 1.2021638 -0.22306302 0.052934572 0.1323475 -0.35085663 0.6283462
00000000: 2549 1cbf e628 eabd d811 9abe 2f2d 333f
00000010: 6bd2 603e 101c 583d 3030 f5be 7e15 bb3e
00000020: 6ea9 393e 6e7d 86bd 605a 93be 136b 333f
00000030: cc07 04bf e26b 153f 8a09 163b 8636 75bf
00000040: da11 3dbb 7a7a 113e 0c8d e73c 4178 be3f
00000050: f4c3 283e 4df2 40be ceb8 243f 5e30 aabe
00000060: 9538 d0be 17eb 3b3f d598 953e 7628 0b3f
00000070: 7b23 4ebf 172f a43d 0489 363f a579 cd3e
00000080: 250a fb3e 50d4 9b3f 5b81 19be 785d 45bc
00000090: ed43 5a3e afe3 08bf bc23 e3bd 9c03 893f
000000a0: 4316 843d 35c4 48be 38d7 383f acc7 ac3e
000000b0: 4003 bbbe 9457 2f3f 9054 833e 3a81 3abd
000000c0: 5346 5bbe 1ba1 323f 7ca1 713e cdbd 343f
000000d0: 7fd1 7e3d 98ea 0f3f cbe3 bcbd 76e9 68bf
000000e0: 6c0b d0be e5c0 8a3f 284f 45be 0fdb 3d3d
000000f0: 4b35 15bf cd23 bc3e dfbc 09be 8628 29be
00000100: 115c fcbe 857c 023f 710c d63c def3 2ebd
00000110: f37d 9540 baa8 813d 09e2 0fbf 26e4 35be
00000120: 9f04 e9be 60ae 533f e40c a73e 4734 b23e
00000130: 741f 143c 0bb4 26bf bcf9 143c 43b8 51bd
00000140: f1f2 d4c0 ae33 e13e f378 4c3e eb60 21be
00000150: 9478 283f 3281 063e 429e 9f3e fcd0 d93e
00000160: 732c 34bf bf41 9d3e 81e0 993f a26a 64be
00000170: ecd1 583d 1a86 073e 7ba3 b3be 4cdb 203f

conv1.bias f4 [32]
-0.01892973 -0.020800393 0.49317002 0.74576384 -0.4776114 0.35606992 0.09963954 -1.278602
-0.2905771 -0.06527416 -0.05646357 0.72552884 -0.11790922 0.41127455 0.008367554 -0.22075483
0.22540963 0.19307363 0.21612689 -0.5172018 0.17142211 0.4925187 0.34766477 -0.2100998
0.22834271 -0.38278005 0.102033235 -0.5074831 1.013104 -0.24450867 0.21777247 0.5815851
00000000: 8512 9bbc 9665 aabc c880 fc3e 61ea 3e3f
00000010: 7b89 f4be cc4e b63e d10f cc3d 3ba9 a3bf
00000020: 86c6 94be 75ae 85bd 5846 67bd 42bc 393f
00000030: 647a f1bd 9492 d23e 1118 093c 8e0d 62be
00000040: c8d1 663e 18b5 453e 5e50 5d3e 5667 04bf
00000050: 4789 2f3e 692b fc3e 1e01 b23e 6724 57be
00000060: acd2 693e bffb c3be cdf6 d03d 6aea 01bf
00000070: 64ad 813f 7b60 7abe bfff 5e3e c3e2 143f

bn1.weight f4 [32]
0.3140007 0.95682395 0.3078133 0.67768216 0.67666584 0.6951698 1.6369092 2.0802145
0.9210026 0.33640617 1.6858733 1.3262206 0.46865416 0.999555 1.6035657 1.2258352
1.8453448 0.7796666 0.6699345 1.5535477 0.28935608 0.8148265 3.5302238 0.44096056
0.8522657 0.51044637 1.2390242 1.3552256 0.76370144 0.32732174 1.599259 0.6970961
00000000: b3c4 a03e 6af2 743f b499 9d3e 947c 2d3f
00000010: f939 2d3f a6f6 313f 3e86 d13f 3c22 0540
00000020: d4c6 6b3f 6e3d ac3e b2ca d73f 99c1 a93f
00000030: 70f3 ef3e d6e2 7f3f a441 cd3f 2be8 9c3f
00000040: 4234 ec3f 3b98 473f d480 2b3f a7da c63f
00000050: 7b26 943e 7898 503f 30ef 6140 95c5 e13e
00000060: 162e 5a3f 9dac 023f 5898 9e3f 0878 ad3f
00000070: f081 433f b796 a73e 85b4 cc3f e474 323f

bn1.bias f4 [32]
0.014475939 0.027775813 -0.023330932 0.029942214 0.050160054 -0.048757415 0.028174594 0.0060306503
0.009534549 -0.09590799 -0.6695593 0.06874343 -0.09440283 0.051887885 -0.022922346 0.05878127
-0.028850893 0.0021813747 -0.035687387 0.07619687 0.099946484 -0.08636218 0.034800906 -0.11587081
0.010016154 0.09889209 0.0021142655 0.054380096 0.0010268103 -0.0109784175 0.07854961 0.044044662
00000000: 7d2c 6d3c 1a8a e33c 8320 bfbc 6049 f53c
00000010: a174 4d3d dbb5 47bd 68ce e63c c39c c53b
00000020: cc36 1c3c 696b c4bd 3d68 2bbf 5bc9 8c3d
00000030: 4556 c1bd 6488 543d a5c7 bbbc a1c4 703d
00000040: b558 ecbc 65f5 0e3b f02c 12bd 1b0d 9c3d
00000050: beb0 cc3d a8de b0bd 658b 0e3d ad4d edbd
00000060: cb1a 243c f087 ca3d 7d8f 0a3b aabd 5e3d
00000070: 0996 863a d2de 33bc 9ede a03d 2d68 343d

bn1.running_mean f4 [32]
-0.019561617 -0.02124635 0.49400458 0.74615276 -0.47776502 0.3551043 0.09833676 -1.2775631
-0.29155508 -0.06550904 -0.0582595 0.72250193 -0.11909028 0.41053173 0.006357416 -0.2210509
0.22366005 0.19343914 0.21623066 -0.5204894 0.1711037 0.49175823 0.34521872 -0.21170478
0.22876169 -0.3816278 0.108108595 -0.50700164 1.0129292 -0.24688183 0.21748072 0.5812218
00000000: af3f a0bc d30c aebc 2bee fc3e de03 3f3f
00000010: 9e9d f4be 3bd0 b53e c964 c93d 3087 a3bf
00000020: b546 95be 9b29 86bd 83a1 6ebd e3f5 383f
00000030: 9be5 f3bd 3731 d23e df51 d03b 2b5b 62be
00000040: 2407 653e e914 463e 926b 5d3e cb3e 05bf
00000050: cf35 2f3e bcc7 fb3e 82c0 b03e 23c9 58be
00000060: 8140 6a3e b864 c3be 0a68 dd3d dcca 01bf
00000070: aaa7 813f 97ce 7cbe 44b3 5e3e f4ca 143f

bn1.running_var f4 [32]
0.4917826 0.5479703 0.45961398 0.54816955 0.66155213 0.9417916 2.7366586 0.52769065
1.0075514 1.0239756 1.0352794 1.5016866 0.4242226 1.1839136 0.753164 0.5387745
0.7578883 0.84270227 1.3417372 1.2061 0.48565984 0.4764738 24.17607 0.4591051
1.2691619 0.59970045 49.47359 0.25442892 0.5651777 0.7458376 1.4870677 0.4834182
00000000: eeca fb3e c847 0c3f 8652 eb3e d754 0c3f
00000010: 7b5b 293f 4119 713f 6a25 2f40 bc16 073f
00000020: 72f7 803f a211 833f 0984 843f 4437 c03f
00000030: b433 d93e 7b8a 973f 5bcf 403f 20ed 093f
00000040: f804 423f 56bb 573f 0bbe ab3f 7c61 9a3f
00000050: 68a8 f83e 60f4 f33e 9768 c141 d30f eb3e
00000060: e673 a23f f885 193f f5e4 4542 8244 823e
00000070: 7caf 103f 37ef 3e3f 3c58 be3f 9782 f73e

fc1.weight f4 [128, 128]
0.009511255 0.05144684 -0.010327663 -3.3194284 -0.026639188 -0.08035635 -0.20061766 -0.02363501
0.26648507 0.22620705 0.07165722 -1.2793058 2.1703038 -0.07937246 -1.6161816 -3.2443402
0.032706764 0.6189112 -0.007686158 -2.33991 0.49315134 -0.0008870497 -0.04562557 -1.0154238
-0.0025699262 0.6754529 -1.2092558e-05 -0.18980551 0.015177803 1.0194434 0.01886433 -3.7136924
0.070996 -0.24316047 0.008005962 -4.0483356 0.14024064 -0.011385296 0.7069039 -0.27151248
0.035697788 -1.1196654 -1.2521347 -0.09102915 -0.014807026 -0.008673628 0.5122975 -0.0052271415
0.095939256 0.049175575 0.43564606 -0.3611158 0.051880024 0.18419701 0.6409927 -0.02148004
-0.04788465 -1.1312367 -2.0337586 -0.03767546 -0.049819764 0.026392253 -0.7165315 -0.022811266
0.023573624 -1.2272805 0.02971578 -1.2165012 -0.009144983 -0.12427719 0.33976334 -0.009090401
0.011583848 0.02875057 -1.7001076 -1.0781868 0.04133294 -0.031193094 0.7813137 0.000857071
-0.13249317 -0.14979796 0.09113834 -2.1189783 1.7572267 0.06408177 -1.0471252 -1.0233662
0.556191 0.024087243 -1.4789236 -0.7221411 0.06508856 -0.01594471 -0.6065778 -0.37417176
0.06917513 -0.16566366 -0.06268761 -3.995218 0.07186095 -1.7675188 0.4082754 -0.014864977
0.034705274 -2.5786872 -0.94586235 1.1265258 0.011110124 -0.8120252 -2.0883193 0.0339669
0.014154389 -0.10723878 0.49337688 -0.024005026 0.109189525 0.07942274 2.1358767 0.064345844
0.031683505 0.0095968535 1.1109397 0.037084542 0.04508395 0.009507627 -0.49691874 0.007888973
-0.035521153 -0.0046647177 -0.0071709165 0.01383072 -0.03512935 -2.1117818 -0.067520306 -1.8991953
-0.8713003 0.03766696 -0.017430779 -0.02370987 -2.7788777 -0.029589966 -0.034834903 -0.056206193
0.09921487 -0.14155728 -0.0150580965 -0.011198818 1.8678397 -0.009616728 -0.015769618 -0.03217227
0.016326716 -0.09660627 -0.21251518 -3.5790124 0.029360287 -0.9516936 -9.645642 0.007811379
-1.1974391 -5.640743 -0.042871013 -0.0021212436 0.047165394 -0.055820305 -3.6681066 -0.26523665
-0.07458794 -0.071277566 -0.07332353 -0.31329304 0.010518384 0.045673028 -0.6314551 -4.284711
-0.0060511525 0.008168964 -3.7727609 -0.20740777 0.038702194 0.067679 -0.26166606 -3.5176082
0.027123459 -4.5544114 0.050087158 -0.30811647 0.012939203 -4.191572 -0.14691137 -1.9620818
-0.6188934 -2.594457 -8.65411 -0.017644443 -0.021316374 -3.1307201 -0.13031906 -0.58624136
0.001234139 -0.015890133 0.015254862 0.25446543 0.017418122 0.022955345 -1.041529 -5.6973357
0.06882366 0.0011220264 -0.016477225 -0.04373267 0.17853251 -0.00719135 -0.0030863818 -0.57243073
-0.4088098 -0.8192979 -3.6383324 -2.9008515 -0.008448775 -0.011656425 -0.37814102 -0.05080872
-1.0106488 -5.916157 -0.019206943 0.007590463 0.017881196 0.07602674 0.99074477 -0.66401476
0.0010790265 0.015216167 1.3487968 3.5735877 0.008759776 -1.9689275 -0.0045931186 -1.4792072
-0.06789658 -2.5574064 -0.08363905 -0.486088 0.046973146 -0.016623624 -4.645541 -1.4813395
0.039915662 0.020297071 -1.1812729 -5.9005437 -0.03299204 -0.10355288 -0.66017413 -1.1883103
00000000: 18d5 1b3c ecb9 523d 5c35 29bc 8471 54c0
00000010: 6d3a dabc df91 a4bd b76e 4dbe 359e c1bc
00000020: bb70 883e d2a2 673e 05c1 923d 4bc0 a3bf
00000030: 42e6 0a40 078e a2bd 0adf cebf 45a3 4fc0
00000040: 87f7 053d f770 1e3f 2bdc fbbb 16c1 15c0
00000050: 557e fc3e e688 68ba e1e1 3abd 68f9 81bf
00000060: 356c 28bb 7bea 2c3f 24e1 4ab7 605c 42be
00000070: 52ac 783c 1f7d 823f 5e89 9a3c 23ad 6dc0
00000080: 5a66 913d 0fff 78be 702b 033c f78b 81c0
00000090: 3e9b 0f3e 6489 3abc a7f7 343f af03 8bbe
000000a0: d837 123d 3251 8fbf f345 a0bf 7e6d babd
000000b0: 2b99 72bc d51b 0ebc ee25 033f 7148 abbb
000000c0: cd7b c43d 546c 493d 000d df3e 2ce4 b8be
000000d0: 2680 543d 249e 3c3e 1918 243f e9f6 afbc
000000e0: b222 44bd 5dcc 90bf 1a29 02c0 9551 1abd
000000f0: cf0f 4cbd 9134 d83c 9c6e 37bf b1de babc
00000100: 791d c13c 8717 9dbf 826e f33c 50b6 9bbf
00000110: d7d4 15bc 0a85 febd 76f5 ad3e e8ef 14bc
00000120: 2eca 3d3c 5186 eb3c 209d d9bf 0602 8abf
00000130: bb4c 293d a988 ffbc 2d04 483f 10ad 603a
00000140: 4aac 07be a364 19be bda6 ba3d 579d 07c0
00000150: ceec e03f 4e3d 833d 3308 86bf aafd 82bf
00000160: 8962 0e3f 9c52 c53c 5e4d bdbf 3dde 38bf
00000170: 274d 853d 7b9e 82bc af48 1bbf 7193 bfbe
00000180: b1ab 8d3d bca3 29be 5d62 80bd a7b1 7fc0
00000190: d52b 933d 0e3e e2bf 7909 d13e 3c8c 73bc
000001a0: 1e27 0e3d 3609 25c0 0924 72bf ff31 903f
000001b0: 3d07 363c e2e0 4fbf 06a7 05c0 e020 0b3d
000001c0: cfe7 673c 01a0 dbbd e59b fc3e 30a6 c4bc
000001d0: c29e df3d 64a8 a23d 34b2 0840 c1c7 833d
000001e0: 90c6 013d 1f3c 1d3c 4633 8e3f f6e5 173d
000001f0: f3a9 383d e1c5 1b3c 226c febe c040 013c
00000200: a17e 11bd 7dda 98bb 02fa eabb 3f9a 623c
00000210: cbe3 0fbd 6f27 07c0 1648 8abd d518 f3bf
00000220: 890d 5fbf ac48 1a3d feca 8ebc 343b c2bc
00000230: 22d9 31c0 a866 f2bc 0baf 0ebd 7738 66bd
00000240: 2a31 cb3d 64f4 10be 3cb6 76bc 3f7b 37bc
00000250: 5f15 ef3f 7b8f 1dbc 492f 81bc 12c7 03bd
00000260: 9bbf 853c 82d9 c5bd 949d 59be 8a0e 65c0
00000270: fc84 f03c 31a2 73bf 8d54 1ac1 99f6 ff3b
00000280: af45 99bf f780 b4c0 8499 2fbd 9004 0bbb
00000290: 8030 413d d5a3 64bd 42c2 6ac0 19cd 87be
000002a0: 90c1 98bd f9f9 91bd a62a 96bd f267 a0be
000002b0: 4d55 2c3c a413 3b3d 0ba7 21bf 5a1c 89c0
000002c0: bf48 c6bb 1ed7 053c ea74 71c0 b462 54be
000002d0: 3186 1e3d 4a9b 8a3d 18f9 85be 7e20 61c0
000002e0: 0432 de3c bdbd 91c0 3128 4d3d 71c1 9dbe
000002f0: f3fe 533c 5c21 86c0 ef6f 16be 7f25 fbbf
00000300: cc6f 1ebf 950b 26c0 3c77 0ac1 148b 90bc
00000310: ad9f aebc b85d 48c0 5c72 05be ea13 16bf
00000320: d5c2 a13a 062c 82bc 87ef 793c 4b49 823e
00000330: 73b0 8e3c d90c bc3c d350 85bf 9350 b6c0
00000340: 6bf3 8c3d f510 933a 3ffb 86bc 0721 33bd
00000350: 3ad1 363e 6ba5 ebbb e544 4abb d28a 12bf
00000360: 854f d1be 82bd 51bf 70da 68c0 8da7 39c0
00000370: bb6c 0abc 97fa 3ebc b39b c1be ce1c 50bd
00000380: f15c 81bf 2851 bdc0 e157 9dbc 6bb9 f83b
00000390: 967b 923c e8b3 9b3d 73a1 7d3f dffc 29bf
000003a0: 1f6e 8d3a 3b4d 793c 60a5 ac3f a9b5 6440
000003b0: 2a85 0f3c d105 fcbf df81 96bb a956 bdbf
000003c0: 5d0d 8bbd 8cac 23c0 f34a abbd 87e0 f8be
000003d0: ea66 403d 442e 88bc 46a8 94c0 889c bdbf
000003e0: 9b7e 233d 0b46 a63c f333 97bf 41d1 bcc0
000003f0: a922 07bd 8813 d4bd 2c01 29bf 8d1a 98bf

fc1.bias f4 [128]
0.62292975 0.31684953 0.15692426 0.2201493 0.5080663 0.22501373 -0.2895636 0.17989261
0.26924965 0.12804335 0.39791578 0.33605015 0.24664937 0.51623213 0.6888552 0.0965588
0.5036524 0.25063592 0.04821778 0.753493 0.28385025 -0.1036027 -0.05709365 0.32818916
0.7196676 0.6420649 0.25260076 0.4227831 -0.03383654 0.28038535 0.34146574 -0.06741961
0.28009194 -0.21735017 0.6146585 0.2584367 0.4986059 -0.22366129 0.33380553 0.15085767
0.6397786 0.4525206 0.32865936 0.55096287 0.11268466 0.10142004 0.21388829 0.36243713
0.2970146 0.40098083 0.51060015 0.753551 0.30835366 0.3428463 0.21462119 -0.34601483
0.42665106 0.3602737 0.68232924 0.29999754 0.4262681 0.31702778 0.32329366 0.3718776
0.25190067 0.3140532 0.42390466 -0.06873513 0.53423584 -0.022818998 0.10030518 0.26026973
0.5560313 0.3177904 0.49034518 0.6530561 0.63690555 0.24595673 0.30213636 0.5750669
-0.3068151 0.36856937 0.33947673 0.011580121 0.14563127 0.5707035 -0.25596243 0.022353638
-0.10528716 0.25511688 0.20211507 0.2655803 -0.043619197 0.5667917 0.24035716 0.39737573
0.3731093 0.268872 0.62675774 -0.07291048 0.49400342 0.33735082 0.30278775 0.6971873
0.27063742 0.13239597 0.2585419 0.3565399 -0.10626967 0.17467429 0.7115527 0.2527587
0.62454593 -0.30651504 -0.072453775 0.23779584 0.24755456 0.280678 0.54288673 0.54804254
0.400345 0.5223504 0.27651164 -0.040593147 0.47713044 0.7348706 0.67004937 0.3553295
00000000: 5378 1f3f 1a3a a23e c1b0 203e d16e 613e
00000010: a210 023f 006a 663e ae41 94be c535 383e
00000020: 17db 893e cc1d 033e 9ebb cb3e c40e ac3e
00000030: a791 7c3e ca27 043f d058 303f 9fc0 c53d
00000040: 5def 003f 5a53 803e 0280 453d ebe4 403f
00000050: d254 913e a72d d4bd 08db 69bd 6908 a83e
00000060: 233c 383f 5e5e 243f e354 813e 0777 d83e
00000070: 2f98 0abd ab8e 8f3e 99d4 ae3e 4b13 8abd
00000080: 3668 8f3e 0b91 5ebe 425a 1d3f d151 843e
00000090: 4649 ff3e 7707 65be 8fe8 aa3e 6f7a 1a3e
000000a0: 88c8 233f c8b0 e73e 0a46 a83e e70b 0d3f
000000b0: 37c7 e63d 4fb5 cf3d 8805 5b3e 5c91 b93e
000000c0: 4c12 983e 5c4d cd3e b1b6 023f b8e8 403f
000000d0: 88e0 9d3e 8d89 af3e a8c5 5b3e db28 b1be
000000e0: 0272 da3e cb75 b83e 21ad 2e3f 4799 993e
000000f0: d03f da3e 7751 a23e bf86 a53e be66 be3e
00000100: 20f9 803e 95cb a03e 080a d93e 01c5 8cbd
00000110: aec3 083f e8ee babc cd6c cd3d 1342 853e
00000120: 1158 0e3f 6cb5 a23e 860e fb3e af2e 273f
00000130: 3e0c 233f 15dc 7b3e 9eb1 9a3e 9637 133f
00000140: de16 9dbe 20b5 bc3e e5cf ad3e 8cba 3d3c
00000150: 5d20 153e a019 123f 820d 83be fa1e b73c
00000160: cba0 d7bd ae9e 823e 41f7 4e3e 24fa 873e
00000170: 0baa 32bd 4319 113f 3020 763e d574 cb3e
00000180: 2f08 bf3e 97a9 893e 3273 203f 1752 95bd
00000190: 04ee fc3e 3fb9 ac3e ff06 9b3e de7a 323f
000001a0: fd90 8a3e cf92 073e 9b5f 843e 668c b63e
000001b0: eaa3 d9bd d1dd 323e 5128 363f 9769 813e
000001c0: 3ee2 1f3f 8aef 9cbe a562 94bd c180 733e
000001d0: f17e 7d3e 07b5 8f3e a0fa 0a3f 844c 0c3f
000001e0: 05fa cc3e c1b8 053f ef92 8d3e 0045 26bd
000001f0: 714a f43e 7b20 3c3f 5b88 2b3f c0ed b53e

fc2.weight f4 [2, 128]
0.33630115 -0.1586527 -0.1462548 -0.19251947 0.12175365 -0.11910866 -0.03583591 0.06934285
0.096571594 -0.18246163 -3.1296115 -0.11450608 -0.14152749 0.1213535 0.056266908 -0.07473979
0.12574951 -0.10637816 -0.17794015 -0.2373612 -0.4208378 0.14533344 0.059316095 -0.102891356
-0.23277101 -0.8691739 -0.19942324 -0.4196584 -0.44004783 -0.118042745 -0.1373762 0.04124435
0.03690365 0.06989329 0.040306095 -0.21232235 0.046264622 -0.40947375 -0.08376187 0.11717015
0.44462818 0.12203957 -0.13515148 0.17288017 -0.12225503 0.015957896 -0.19077703 -0.46569023
-0.122462586 0.11107742 -0.00958797 -0.2664226 -0.423405 -0.06508537 -0.03889754 -0.026622845
0.039501645 0.09329598 -0.29471102 0.024695229 -3.1000981 -0.10913343 -0.031448215 0.060283855
-0.17390408 -0.11819882 -0.35443035 0.15766324 0.14575252 0.18988672 0.0041797166 0.10443094
0.14849806 -0.053059213 0.16308574 0.19722472 0.20473343 -0.1657263 -0.10549765 0.06683837
-0.088715956 0.00021553785 -0.18715864 -0.030561388 -0.23642068 0.15331447 0.026009386 -0.061729543
0.05981944 -0.21059348 -0.16086744 -0.16018492 0.11017626 0.6473785 -0.080549225 0.0043763435
-0.38149908 -0.096082315 0.16347946 0.09698192 0.08342639 0.12863372 0.103776835 -0.40119505
-0.12150904 0.07643405 -0.13829876 -0.06886736 0.08810606 -0.08091511 -0.32000482 -0.18859251
0.2778433 0.11758295 0.28108296 0.028269958 0.014086472 0.048098333 0.07254984 -0.28570476
0.056834653 0.08644806 -0.047076352 -0.3580473 -0.36138955 -0.19046573 0.13094603 0.01604505
-0.30153108 0.14956838 0.11778131 0.20495586 -0.13266873 0.044352543 0.03242114 -0.07872414
-0.03131933 0.093848646 3.1383557 0.103344016 0.04704231 -0.12600125 -0.045135133 -0.041711345
-0.08672467 0.16587642 0.16624483 0.25939828 0.39772052 -0.06376057 -0.118665814 0.11016482
0.27469835 0.84741974 0.1454893 0.352877 0.33478788 0.07653701 0.1002476 0.04503611
-0.019136366 -0.09948398 -0.020166134 0.05860033 -0.0905553 0.40447453 -0.05691755 0.015434713
-0.5565876 -0.121943735 0.19420397 -0.20765075 0.08239335 -0.040036842 0.18074375 0.46228063
0.15452024 -0.13572688 -0.10598029 0.37191135 0.4393154 0.15075003 0.100735985 -0.04812359
-0.12484028 -0.013805339 0.31620923 -0.044200126 3.1458995 0.06368908 0.13354711 -0.037617896
0.1144477 0.18663192 0.38033494 -0.052292656 -0.22004634 -0.092765324 -0.052521992 0.02240033
-0.036299925 0.17265962 -0.04894758 -0.2644103 -0.1751823 0.17242727 0.0978516 -0.17099938
0.10150067 -0.12933862 0.060146794 0.046563897 0.19532084 -0.21216942 0.07979634 0.1372343
-0.09504541 0.052341707 0.19179837 0.10459135 -0.12865086 -0.62182593 0.19023263 -0.044413365
0.34204426 0.1590356 -0.28777704 -0.13883571 -0.10450496 -0.17658831 0.020006357 0.37337828
0.07627063 -0.035934027 0.17300911 0.14971665 -0.04478729 0.09556339 0.23930843 0.084751025
-0.33127084 -0.12160961 -0.2503862 -0.028626066 -0.06014899 -0.040291715 -0.035586067 0.29754555
-0.1198438 -0.079161294 0.09914963 0.26198763 0.21820424 0.12472822 0.019877955 -0.08301113
00000000: aa2f ac3e da75 22be d1c3 15be d323 45be
00000010: fa59 f93d 3eef f3bd adc8 12bd a003 8e3d
00000020: 54c7 c53d 39d7 3abe 8e4b 48c0 2a82 eabd
00000030: 95ec 10be 2f88 f83d 2178 663d 2d11 99bd
00000040: 7bc4 003e cbdc d9bd f135 36be d00e 73be
00000050: 0d78 d7be 4ad2 143e 6ff5 723d b4b8 d2bd
00000060: 865b 6ebe 2e82 5ebf 9b35 4cbe 77dd d6be
00000070: f34d e1be 65c0 f1bd 59ac 0cbe d6ef 283d
00000080: 4828 173d 3724 8f3d 0118 253d 086b 59be
00000090: f97f 3d3d 8ba6 d1be 588b abbd e7f6 ef3d
000000a0: 4ea6 e33e e2ef f93d 2665 0abe 8007 313e
000000b0: d860 fabd 22ba 823c 0e5b 43be f36e eebe
000000c0: aacd fabd 8f7c e33d dc16 1dbc 8b68 88be
000000d0: 8ac8 d8be 7a4b 85bd 0753 1fbd 2718 dabc
000000e0: 7acc 213d f611 bf3d 5de4 96be a64d ca3c
000000f0: 0268 46c0 5981 dfbd d8cf 00bd 34ec 763d
00000100: e913 32be 3912 f2bd e577 b5be 7972 213e
00000110: 2640 153e aa71 423e 01f6 883b e3df d53d
00000120: e00f 183e 9e54 59bd f3ff 263e 47f5 493e
00000130: a4a5 513e 28b4 29be 270f d8bd 8ee2 883d
00000140: b6b0 b5bd 0002 6239 84a6 3fbe e05b fabc
00000150: 4318 72be 78fe 1c3e a311 d53c 1ed8 7cbd
00000160: 3b05 753d d1a5 57be 6fba 24be 8407 24be
00000170: 17a4 e13d 99ba 253f fef6 a4bd 6e67 8f3b
00000180: d953 c3be cec6 c4bd 2967 273e 759e c63d
00000190: 75db aa3d 8fb8 033e f388 d43d 7069 cdbe
000001a0: bbd9 f8bd 7589 9c3d 319e 0dbe 550a 8dbd
000001b0: f370 b43d d2b6 a5bd acd7 a3be 651e 41be
000001c0: 7a41 8e3e 54cf f03d 1bea 8f3e 6696 e73c
000001d0: f2ca 663c c202 453d 0395 943d e547 92be
000001e0: 74cb 683d ae0b b13d 22d3 40bd fa51 b7be
000001f0: 0d08 b9be 7309 43be b716 063e e970 833c
00000200: 4862 9abe 7428 193e 5437 f13d f3df 513e
00000210: 50da 07be 03ab 353d 07cc 043d 1f3a a1bd
00000220: b348 00bd b833 c03d d2da 4840 07a6 d33d
00000230: 70af 403d 7906 01be 9edf 38bd 84d9 2abd
00000240: b49c b1bd 82db 293e 163c 2a3e dacf 843e
00000250: 06a2 cb3e e794 82bd 1007 f3bd 189e e13d
00000260: 43a5 8c3e 80f0 583f 26fb 143e 4bac b43e
00000270: 5169 ab3e 70bf 9c3d 9d4e cd3d c977 383d
00000280: dec3 9cbc 42be cbbd 7333 a5bc e606 703d
00000290: 0f75 b9bd 4917 cf3e 6022 69bd e1e1 7c3c
000002a0: 867c 0ebf a3bd f9bd 68dd 463e 66a2 54be
000002b0: d8bd a83d acfd 23bd e414 393e 0cb0 ec3e
000002c0: 8e3a 1e3e fdfb 0abe 320c d9bd 2a6b be3e
000002d0: f3ed e03e 375e 1a3e ab4e ce3d 3e1d 45bd
000002e0: 43ac ffbd ca2f 62bc 2de6 a13e 310b 35bd
000002f0: 6b56 4940 6c6f 823d 93c0 083e 3915 1abd
00000300: 8e63 ea3d 701c 3f3e 43bb c23e d330 56bd
00000310: d453 61be bffb bdbd 4d21 57bd e680 b73c
00000320: 3baf 14bd afcd 303e 427d 48bd c960 87be
00000330: fd62 33be c690 303e 6b66 c83d 761a 2fbe
00000340: 95df cf3d 5871 04be 7c5c 763d c9b9 3e3d
00000350: 3002 483e f142 59be 436c a33d 2687 0c3e
00000360: 2ba7 c2bd 4264 563d cb66 443e fd33 d63d
00000370: 0dbd 03be fc2f 1fbf 58cc 423e caea 35bd
00000380: 6d20 af3e 3ada 223e 8357 93be f32a 0ebe
00000390: b206 d6bd 91d3 34be 5fe4 a33c 702b bf3e
000003a0: c733 9c3d 8f2f 13bd 4d29 313e 524f 193e
000003b0: e172 37bd bdb6 c33d 450d 753e f291 ad3d
000003c0: 559c a9be 760e f9bd 9f32 80be 3681 eabc
000003d0: ca5e 76bd ed08 25bd b2c2 11bd e457 983e
000003e0: ab70 f5bd 511f a2bd f60e cb3d 3e23 863e
000003f0: ef70 5f3e 8271 ff3d 18d7 a23c bd01 aabd

fc2.bias f4 [2]
0.029210264 -0.07316213
00000000: 5d4a ef3c 07d6 95bd
